results/save_10_5.pt (torch, 849961 bytes, 82 tensors)

get_machines.0.attn_l f4 [1, 1, 8]
0	0x3eb96435	0.36209264
1	0x3e2946be	0.16530892
2	0x3f29da4e	0.6634873
3	0xbd811ff1	-0.063049205
4	0xbf03600f	-0.5131845
5	0xbf58787e	-0.84558856
6	0xbf57dacc	-0.8431823
7	0x3fc4ed37	1.5384892

get_machines.0.attn_r f4 [1, 1, 8]
0	0x3f1e88be	0.619274
1	0xbecaf2a7	-0.39638254
2	0x3e0b11ec	0.13581055
3	0x3f526ccd	0.82197267
4	0xbf6bbab5	-0.9208177
5	0xbdf307f0	-0.11866748
6	0x3e66b920	0.22531557
7	0xbe1c8eee	-0.15288898

get_machines.0.attn_e f4 [1, 1, 8]
0	0xbec73544	-0.38907826
1	0x3ed52834	0.41632235
2	0xbeb9fe6a	-0.36326915
3	0xbf079189	-0.52956444
4	0xbf03373b	-0.5125615
5	0xbea89ef1	-0.32933763
6	0x3e848745	0.25884452
7	0xbda577a7	-0.080794625

get_machines.0.fc_src.weight f4 [8, 6]
0	0x3e4e76db	0.20162527
1	0xbebedd29	-0.37278107
2	0x3e73f7f0	0.2382505
3	0x3f621721	0.8831654
4	0xbf83d55f	-1.0299491
5	0x3f07e57d	0.53084546
6	0xbe39ec56	-0.18156561
7	0x3e26d5ce	0.16292498
8	0xbef11fed	-0.4709467
9	0xbf23ab69	-0.63933426
10	0xbe732c72	-0.23747423
11	0xbe882b0e	-0.26595348
12	0x3e0afa94	0.1357215
13	0xbd09d80f	-0.033653315
14	0x3f0e3c54	0.55560803
15	0xbe57cb87	-0.21073733
16	0x3e9114de	0.28336233
17	0x3f69b218	0.91287374
18	0xbd8ade9c	-0.067807406
19	0x3f2ed2d8	0.6829047
20	0x3fa4ac6f	1.2865123
21	0x3da367e8	0.07978803
22	0x3ea9ac05	0.33139053
23	0x3f5168e8	0.818007
24	0x3f419c45	0.75629073
25	0x3ef96560	0.48710155
26	0xbe147fcf	-0.1450188
27	0xbef293a9	-0.4737828
28	0x3ed1724f	0.40907523
29	0xbf458021	-0.77148634
30	0xbf07c976	-0.5304178
31	0x3e3636dd	0.17794366
32	0x3e9f8a52	0.31160218
33	0xbe434b6e	-0.19071743
34	0xbf388d9e	-0.7209109
35	0xbe81c83c	-0.2534808
36	0x3f41437e	0.7549361
37	0x3de168b5	0.110062994
38	0xbedb054c	-0.4277748
39	0xbd9340ef	-0.071901195
40	0x3c331c57	0.01093205
41	0xbcd0e84c	-0.025501393
42	0x3ec234e2	0.3793097
43	0x3b8ba5bf	0.004261702
44	0x3c923995	0.017849723
45	0xbf02e464	-0.51129746
46	0xbd4ea808	-0.050453216
47	0x3e4ff364	0.2030769

get_machines.0.fc_dst.weight f4 [8, 3]
0	0xbf27571c	-0.65367293
1	0xbfa6d320	-1.303318
2	0xbd7a8cbd	-0.061169375
3	0xbeead0b6	-0.4586236
4	0x3f4e56cc	0.8060119
5	0x3f4fd84c	0.8118942
6	0x3ecd7cec	0.4013437
7	0xbef7f1ca	-0.48426658
8	0x3f22c63e	0.63583744
9	0xbcd4c3d9	-0.025972294
10	0x3f3ff17e	0.7497786
11	0x3f1e0d5c	0.61739135
12	0x3b3ff5a8	0.002929071
13	0xbf773faf	-0.9658155
14	0xbf2dd8c7	-0.679089
15	0x3eb41a03	0.35176095
16	0x3f0ad4ac	0.5423076
17	0xbd379590	-0.04482037
18	0xbf15e080	-0.58545685
19	0xbef25cdd	-0.47336474
20	0xbf09cab7	-0.53824943
21	0xbf059b5f	-0.521902
22	0xbedf4358	-0.43606067
23	0xbf4a15cf	-0.7893953

get_machines.0.fc_edge.weight f4 [8, 1]
0	0x3e962a03	0.29328927
1	0x3f3cd507	0.73762554
2	0xbe96697c	-0.29377353
3	0xbf471f71	-0.7778235
4	0xbd70cb03	-0.058787357
5	0xbf19ed8b	-0.60128087
6	0x3d9b95a3	0.075969
7	0xbededd8e	-0.43528408

get_machines.1.attn_l f4 [1, 1, 8]
0	0xbe3e7385	-0.18598755
1	0x3e127d18	0.14305532
2	0xbe2554ea	-0.16145673
3	0x3ecdbc50	0.40182734
4	0x3f0fea4b	0.5621688
5	0x3f6f0395	0.9336484
6	0x3ea7ead1	0.32796338
7	0xbed59166	-0.41712493

get_machines.1.attn_r f4 [1, 1, 8]
0	0x3f0204be	0.50788486
1	0xbdbb58df	-0.0914781
2	0x3eeffc4f	0.46872184
3	0x3f3110d8	0.69166327
4	0x3ea38efb	0.31945023
5	0x3fd59a1c	1.6687655
6	0xbf629986	-0.8851551
7	0xbe012fe7	-0.1261593

get_machines.1.attn_e f4 [1, 1, 8]
0	0xbe33f0a1	-0.17572261
1	0xbdb47295	-0.08810917
2	0xbe855464	-0.26040947
3	0xbf988bb8	-1.1917639
4	0x3e67f7c7	0.22653113
5	0x3e0fdc1c	0.14048809
6	0xbf24013d	-0.6406439
7	0xbe4875ed	-0.19576235

get_machines.1.fc_src.weight f4 [8, 8]
0	0xbdea30e4	-0.114351064
1	0xbea00932	-0.31257015
2	0xbe63d280	-0.22248268
3	0x3f73784e	0.95105445
4	0xbdfbfa07	-0.12303548
5	0x3f45eb4b	0.77312154
6	0xbe93bc6b	-0.2885469
7	0xbeb81128	-0.3595059
8	0x3ec68643	0.3877431
9	0x3fac8e0f	1.3480853
10	0xbe173148	-0.14764893
11	0xbe0e7347	-0.13911162
12	0xbf1b32f9	-0.60624653
13	0x3e84c5d3	0.25932178
14	0xbed98b8d	-0.4248928
15	0xbf3605a9	-0.71102387
16	0x3dbb3817	0.09141558
17	0xbedb7f00	-0.4287033
18	0xbee71716	-0.451348
19	0x3f65f822	0.89831746
20	0xbefd8d3c	-0.49521816
21	0xbf09b596	-0.53792703
22	0xbedd6f1d	-0.43248835
23	0xbe1efa47	-0.1552516
24	0xbe04c2de	-0.12964961
25	0xbe0d8a4e	-0.1382229
26	0xbe54e9a8	-0.20792258
27	0xbe1fca71	-0.15604569
28	0x3efe3a56	0.49653882
29	0xbef184b2	-0.4717155
30	0xbf131119	-0.57447964
31	0xbe195e94	-0.14977485
32	0xbe4c3ee8	-0.19945872
33	0x3edad1b0	0.42738104
34	0x3f1ed68a	0.6204611
35	0x3e9cd2f1	0.30629686
36	0x3dff88d3	0.12477269
37	0x3c4276af	0.011869117
38	0x3f7c1e43	0.98483676
39	0x3eaac4ee	0.3335337
40	0x3edf580d	0.43621865
41	0x3d1bf937	0.038079467
42	0x3f405f88	0.7514577
43	0xbda68bd4	-0.08132139
44	0x3d21251b	0.039342027
45	0xbdd7efb7	-0.10543769
46	0xbdc58617	-0.09644716
47	0x3f12aa87	0.57291454
48	0x3e056eff	0.13030623
49	0x3f347923	0.7049734
50	0xbde2e8fa	-0.11079593
51	0xbf2c00d7	-0.6718878
52	0xbf5575aa	-0.83382666
53	0xbc9d9eb4	-0.019240715
54	0xbcf12662	-0.029437248
55	0x3e64e06d	0.22351237
56	0xbf2220ae	-0.63331115
57	0x3eb748e5	0.35797802
58	0xbf17b746	-0.5926403
59	0xbeabd375	-0.33559766
60	0x3f0b3254	0.5437367
61	0xbf1ccfab	-0.61254376
62	0xbeb40447	-0.35159513
63	0x3eacc711	0.33745626

get_machines.1.fc_dst.weight f4 [8, 8]
0	0xbf7712dc	-0.9651315
1	0x3b9df7bc	0.004820792
2	0x3e3d6ed7	0.18499313
3	0xbf6dc408	-0.92877245
4	0x3f36685c	0.7125299
5	0x3d7a3d81	0.06109381
6	0x3e33017c	0.17481035
7	0xbd709b19	-0.058741663
8	0xbf0471af	-0.5173597
9	0x3f6adc08	0.9174199
10	0x3f2682db	0.6504342
11	0x3ec182e3	0.3779517
12	0xbe4514d9	-0.19246234
13	0x3e264d5f	0.16240452
14	0xbec0ef98	-0.37682796
15	0x3f0284e6	0.50984037
16	0x3ea5b9d4	0.32368338
17	0x3f74e9a2	0.95668995
18	0x3f2307c4	0.63683724
19	0x3f351534	0.7073548
20	0xbd4657a9	-0.048423443
21	0xbe97eeb2	-0.29674298
22	0xbe28a572	-0.16469362
23	0xbdb48b78	-0.08815664
24	0x3cbaeaf3	0.02281711
25	0xbed022cb	-0.40651545
26	0x3f43dc2a	0.7650782
27	0xbf0353cb	-0.5129973
28	0x3d4a9b9b	0.049464803
29	0x3e8699e7	0.26289293
30	0x3f2a491b	0.665178
31	0xbe61f4f5	-0.220661
32	0xbe028327	-0.12745343
33	0xbefc2542	-0.49247175
34	0xbe21b80b	-0.15792863
35	0x3cc57f2d	0.024108494
36	0x3d209784	0.039206997
37	0x3d5a87e3	0.053352248
38	0xbe9ec6cc	-0.31011045
39	0xbf0a653b	-0.54060715
40	0xbe2314d9	-0.15925921
41	0x3db42996	0.087969944
42	0xbf4a0422	-0.78912556
43	0xbd4f839c	-0.05066262
44	0x3ea55986	0.32294863
45	0xbee5f11a	-0.44910508
46	0x3ed484c5	0.41507545
47	0x3e02d8a3	0.12777953
48	0xbeddd5d7	-0.4332721
49	0x3dd5f953	0.104479454
50	0x3f36eeeb	0.7145831
51	0xbea3cd63	-0.31992635
52	0xbf238483	-0.6387407
53	0xbd141e00	-0.036161423
54	0x3f2a3866	0.6649231
55	0xbf215d3a	-0.6303288
56	0x3ec9b491	0.39395574
57	0x3e1ecc6c	0.15507668
58	0xbd42ec19	-0.04758844
59	0xbc2a51f1	-0.010395513
60	0xbf7a382b	-0.97741956
61	0xbee0b4f6	-0.43888062
62	0x3e2a5692	0.16634586
63	0xbec26ef8	-0.37975287

get_machines.1.fc_edge.weight f4 [8, 1]
0	0xbf0c35f7	-0.54769844
1	0x3f331ba6	0.69964063
2	0x3f139645	0.5765117
3	0x3f4155f5	0.75521785
4	0xbf3d966e	-0.7405766
5	0xbf075e58	-0.5287833
6	0x3f8c2272	1.0948012
7	0xbf807b5b	-1.0037645

get_operations.0.gnn_layers.0.project.0.weight f4 [128, 8]
0	0x3dc0e615	0.09418885
1	0x3d55004f	0.052002247
2	0x3cf3958b	0.029734394
3	0xbe8d6f18	-0.2762382
4	0x3d4899a1	0.048974637
5	0x3e606cb1	0.21916462
6	0x3e8c5306	0.27407092
7	0xbe90e38e	-0.2829861
8	0xbe7234ef	-0.23653005
9	0x3e4f12a4	0.20221955
10	0x3eac8f7b	0.33703217
11	0x3ea48503	0.3213273
12	0x3eae08f0	0.33991194
13	0x3e8c66aa	0.27422076
14	0x3db7e7c5	0.089797534
15	0x3e611081	0.21978952
16	0x3e81e245	0.25367942
17	0x3e92f3f7	0.28701755
18	0xbd800103	-0.06250193
19	0x3c29ca52	0.010363178
20	0xbea7d91a	-0.32782823
21	0x3e9323a5	0.28738132
22	0xbe547e8d	-0.207514
23	0x3e0cf26f	0.13764356
24	0x3d3f075a	0.04663787
25	0xbe4e4f95	-0.20147546
26	0xbe88201e	-0.26587003
27	0x3e587cdf	0.21141385
28	0xbdca64fa	-0.09882541
29	0xbcf81b09	-0.030286329
30	0x3e9e37db	0.3090199
31	0x3e1e0858	0.1543287
32	0x3e312f8d	0.17303295
33	0xbe8c7492	-0.27432686
34	0xbe29af11	-0.16570689
35	0xbe4d9342	-0.20075706
36	0x3dea585a	0.11442633
37	0xbb6df902	-0.003631175
38	0x3e90cd42	0.282816
39	0x3e8c362b	0.27385077
40	0xbd1d75d5	-0.03844245
41	0xbe6cdb61	-0.23130561
42	0x3e899d7f	0.26877972
43	0x3e1a6738	0.15078437
44	0xbe730d6b	-0.23735587
45	0xbeb85a06	-0.36006182
46	0x3d1e8779	0.038703416
47	0xbe9f7b95	-0.31148973
48	0x3e13a55c	0.14418548
49	0x3e056de8	0.13030207
50	0x3d9940ca	0.07483061
51	0x3cd6454d	0.026156092
52	0xbe2774c3	-0.16353135
53	0x3e98c35c	0.29836547
54	0xbd1ab13b	-0.037766676
55	0x3e987c60	0.2978239
56	0xbead8487	-0.33890173
57	0xbea9909a	-0.33118135
58	0x3df4096c	0.119158596
59	0xbe598c21	-0.21244861
60	0x3d4495be	0.047994368
61	0xbe7c8475	-0.24659903
62	0x3dde4573	0.1085309
63	0x3ec3e34b	0.38259348
64	0xbca94ca8	-0.020666435
65	0xbda180a9	-0.07885868
66	0xbc409c75	-0.011756052
67	0xbe496bda	-0.19670048
68	0x3ccd4701	0.025058271
69	0x3d69f773	0.05712075
70	0x3dbc4d3b	0.09194418
71	0xbe495e3c	-0.19664854
72	0x3decb983	0.11558821
73	0x3c94179e	0.018077668
74	0x3ea36036	0.3190934
75	0x3e98b0e8	0.2982247
76	0x3ead14d6	0.3380496
77	0xbd941693	-0.07230868
78	0x3df47935	0.11937181
79	0xbe09d401	-0.1345978
80	0xbe860f29	-0.2618344
81	0xbe0bed01	-0.13664629
82	0xbdb4708d	-0.0881053
83	0xbe599fe7	-0.21252404
84	0xbe0b17ba	-0.1358327
85	0xba42de52	-0.0007433641
86	0xbe685a73	-0.22690754
87	0xbdb806d7	-0.089856796
88	0x3c6f4f4a	0.014606306
89	0x3c6779e1	0.014128179
90	0x3e40f5dd	0.1884379
91	0x3e87e5bd	0.26542464
92	0x3e17ebf1	0.14836098
93	0xbe059fc8	-0.13049233
94	0x3e09f090	0.13470674
95	0x3e083e88	0.13305104
96	0xbdfc95f6	-0.1233329
97	0x3e6bdd75	0.23033698
98	0x3dc1a8e0	0.094560385
99	0x3df11ca1	0.11773039
100	0xbe99012f	-0.29883716
101	0x3e7f75fc	0.24947351
102	0xbe2f984d	-0.17147942
103	0xbe50e197	-0.20398556
104	0xbe9517d0	-0.2911973
105	0xbe6492cb	-0.22321622
106	0x3e0dd594	0.13851005
107	0x3e185738	0.14877021
108	0x3c21dd31	0.009879396
109	0xbe7fb90d	-0.24972935
110	0x3eab72fa	0.33486158
111	0xbea67f4d	-0.32518998
112	0xbd9e145b	-0.07718726
113	0x3db5a941	0.08870173
114	0x3dee9907	0.116502814
115	0xbeb681a1	-0.35645774
116	0xbe8fb9ee	-0.2807154
117	0x3e8ebfdc	0.27880752
118	0xbba97fe1	-0.005172715
119	0x3dd7c4ae	0.105355605
120	0x3e72e269	0.23719181
121	0xbe3b3fbd	-0.18286033
122	0xbeb6b7eb	-0.35687193
123	0x3e02909d	0.12750478
124	0x3e959586	0.2921564
125	0xbe833995	-0.2562987
126	0x3d5ffc19	0.05468378
127	0xbe17e0e7	-0.14831887
128	0x3d23e30f	0.04001146
129	0xbe8aef31	-0.27135614
130	0x3e13273c	0.14370435
131	0x3e29898b	0.16556375
132	0xbea248eb	-0.31696257
133	0x3eac2bf0	0.33627272
134	0xbc7cf5ea	-0.01543949
135	0x3e48d560	0.19612646
136	0xbd6d57bb	-0.057944994
137	0xbddf75b1	-0.1091112
138	0x3ea62fc8	0.3245833
139	0x3dfb9c46	0.12285666
140	0x3e4e99d4	0.20175868
141	0x3da62fa6	0.08114557
142	0x3e300e6f	0.17193006
143	0x3eab7b7a	0.33492643
144	0x3cab2451	0.02089134
145	0xbe738a45	-0.23783214
146	0xbe9791a4	-0.29603302
147	0x3cc2ae55	0.023764769
148	0x3e932b67	0.2874405
149	0xbe052e23	-0.13005881
150	0x3e0ece30	0.13945842
151	0x3c96e68a	0.018420476
152	0x3e4f2ace	0.20231172
153	0xbeb2bb91	-0.34908727
154	0x3e27ed12	0.16399029
155	0x3ea76caf	0.32700107
156	0x3b4cfde5	0.0031279263
157	0xbe92b1b6	-0.28651208
158	0x3e3a6a53	0.18204622
159	0xbdcb9a6c	-0.09941563
160	0xbe9fdbe2	-0.31222445
161	0xbcb688eb	-0.022282084
162	0xbcbf638e	-0.023362901
163	0x3e4463d7	0.19178711
164	0xbe02ddc0	-0.12779903
165	0xbd84cd99	-0.06484527
166	0xbea186d4	-0.31548178
167	0x3e1cfa6b	0.15329902
168	0xbea1f2fc	-0.31630695
169	0x3c87c431	0.016573044
170	0xbe56e4d0	-0.20985723
171	0xbe1b5ad6	-0.1517137
172	0x3d5ae160	0.05343759
173	0x3e41c1ca	0.18921581
174	0x3e93d5bf	0.28874013
175	0x3e52f27a	0.2060031
176	0xbd0ecb4e	-0.034861855
177	0xbe06a03d	-0.13147064
178	0xbea549ad	-0.32282773
179	0xbe8b365b	-0.27189907
180	0x3dd0d967	0.10197716
181	0xbe6ac616	-0.22927126
182	0x3dce2e84	0.10067466
183	0x3e911b6f	0.28341243
184	0x3e95a903	0.29230508
185	0xbd888e6e	-0.06667791
186	0x3e033c4a	0.12815967
187	0x3e917de1	0.2841635
188	0xbe78a5d9	-0.24282016
189	0x3e82f965	0.25580898
190	0xbcb5966f	-0.022166459
191	0xbddee070	-0.10882652
192	0xbb8065d3	-0.0039183884
193	0x3d229012	0.039688177
194	0x3e56594f	0.20932506
195	0x3e875a19	0.26435927
196	0x3df07783	0.11741545
197	0xbc6ec6ab	-0.014573733
198	0xbd6f6bda	-0.058452465
199	0x3de41e7f	0.11138629
200	0xbe61fabf	-0.22068308
201	0xbd8d023e	-0.06885193
202	0xbe9fc793	-0.3120695
203	0xbe0a27e0	-0.13491774
204	0x3e838d8a	0.25693923
205	0xbe80c93a	-0.25153524
206	0x3ea08ece	0.3135895
207	0xbea696ba	-0.3253687
208	0xbe2d041c	-0.16896099
209	0x3e0e2e01	0.13884737
210	0x3d9c127c	0.07620713
211	0xbdb37721	-0.087629564
212	0xbde8a681	-0.11359883
213	0xbdc36711	-0.09541143
214	0xbdca3b22	-0.0987456
215	0x3e0e8d9c	0.13921207
216	0xbe706981	-0.23477747
217	0xbd236990	-0.039895594
218	0xbe619044	-0.22027689
219	0x3df345c0	0.11878538
220	0x3e61c22e	0.2204673
221	0xbe8ce577	-0.27518818
222	0xbdc489ca	-0.09596594
223	0x3c55fc68	0.013060667
224	0x3de1ef36	0.11031954
225	0xbdc56efa	-0.09640308
226	0xbe0646c9	-0.1311294
227	0x3e9a9f60	0.30199718
228	0xbea80116	-0.32813329
229	0xbd407ec7	-0.046995904
230	0x3cd67c27	0.026182247
231	0x3e98383f	0.29730412
232	0xbe50c8b6	-0.20389065
233	0x3e217eb2	0.15770987
234	0xbe73ea5f	-0.23819874
235	0x3e1fb737	0.15597235
236	0xbea8fe5c	-0.3300656
237	0x3eb14ae0	0.34627438
238	0x3eaca10c	0.3371662
239	0x3eaec462	0.34134203
240	0x3e7a2613	0.24428587
241	0x3e122de9	0.14275326
242	0xbe847dba	-0.25877172
243	0x3e86df28	0.2634213
244	0x3eba6e5e	0.36412328
245	0xbe82b68e	-0.25529903
246	0x3e6c4cac	0.23076123
247	0x3eb54360	0.35402966
248	0xbe3c6679	-0.18398465
249	0x3e74090e	0.23831579
250	0xbe3d74f2	-0.18501642
251	0x3df7ac8b	0.12093457
252	0xbda8f5cf	-0.08250009
253	0x3e610464	0.21974331
254	0x3d9d7d41	0.07689906
255	0xbd9d6e4e	-0.076870546

get_operations.0.gnn_layers.0.project.0.bias f4 [128]
0	0xbd641069	-0.055679712
1	0x3e9047ff	0.2817993
2	0xbdc36386	-0.09540467
3	0x3e99a066	0.30005187
4	0x3dae3703	0.085065864
5	0xbe7e107e	-0.24810979
6	0xbea64476	-0.32474107
7	0x3c02314b	0.007946323
8	0x3e7b0bb3	0.24516182
9	0x3e1bcbb6	0.15214428
10	0x3e377fc6	0.17919835
11	0x3d7cb03b	0.061691504
12	0x3e5b51b2	0.21417883
13	0x3e825501	0.25455478
14	0x3ce4e18c	0.02793958
15	0x3e64dcfa	0.22349921
16	0x3e0556d8	0.1302141
17	0x3e7c7e95	0.24657662
18	0xbdf47887	-0.11937051
19	0x3ea4a8fd	0.32160178
20	0x3ea3235f	0.31862924
21	0xbe8a91a1	-0.2706423
22	0x3e7ece52	0.24883392
23	0xbe597ee7	-0.21239816
24	0xbe74dbbc	-0.23911947
25	0xbdf393d6	-0.11893432
26	0xbe670fca	-0.22564617
27	0x3c47e234	0.012199927
28	0x3ea0a471	0.3137546
29	0x3e5eb2ed	0.21747942
30	0x3e9a5621	0.30143836
31	0x3eb456a0	0.3522234
32	0xbe193515	-0.14961655
33	0x3e4e8fc4	0.2017203
34	0xbd0cf635	-0.03441449
35	0xbe90e155	-0.28296915
36	0xbc6aab08	-0.014323004
37	0xbe5dab7c	-0.21647447
38	0x3e8a4c1c	0.27011192
39	0xbda9f625	-0.082989015
40	0x3d6e2782	0.058143146
41	0xbe005a44	-0.12534434
42	0x3e6a2ba9	0.22868218
43	0xbe964901	-0.29352573
44	0xbe86e5d9	-0.26347235
45	0xbda679c9	-0.081286974
46	0xbe9644f7	-0.2934949
47	0x3e1598c2	0.14609054
48	0xbe645024	-0.22296196
49	0x3d482106	0.04885962
50	0x3e3b519e	0.18292853
51	0x3e8158b4	0.25262988
52	0x3e987f2b	0.2978452
53	0xbdb95087	-0.090485625
54	0xbd1d96e6	-0.038473986
55	0x3d96c689	0.07362086
56	0xbdfafe0a	-0.12255485
57	0xbe8d0465	-0.27542415
58	0x3dda99d8	0.106738746
59	0xbe826cbb	-0.2547358
60	0x3e6a7811	0.22897364
61	0x3dda5645	0.10660986
62	0x3e9a703c	0.30163753
63	0x3e0ad2ba	0.13556948
64	0xbeafd267	-0.34340212
65	0xbe04a1ca	-0.12952343
66	0xbea3983c	-0.31952083
67	0x3e1d747b	0.15376465
68	0x3e4f3240	0.20234013
69	0x3eb29048	0.34875703
70	0xbe54f909	-0.20798124
71	0x3e185f0c	0.14880008
72	0x3c8d8916	0.017277282
73	0x3ea08caa	0.31357318
74	0xbe90046a	-0.28128368
75	0xbdd6da96	-0.10490911
76	0x3d29459d	0.041326154
77	0x3e84cb65	0.25936428
78	0x3e1440d7	0.1447786
79	0x3d48b6ef	0.049002584
80	0x3e7d96ae	0.24764511
81	0xbcd569b1	-0.026051374
82	0x3dec1c53	0.1152884
83	0x3dabd20b	0.08389672
84	0x3d356e62	0.044294722
85	0xbd59f921	-0.053216103
86	0x3dc55b6b	0.09636577
87	0xbd961a0c	-0.07329187
88	0x3b97cfe7	0.004632938
89	0x3e2df15e	0.16986606
90	0xbdd821dc	-0.10553333
91	0x3da79913	0.081834935
92	0xbe06bf86	-0.13158998
93	0x3e8ec2c0	0.27882957
94	0x3e20f928	0.15720046
95	0xbe59a5c0	-0.21254635
96	0x3ddf1cdd	0.10894177
97	0xbe793fdd	-0.24340768
98	0xbe15f86d	-0.14645548
99	0xbe0d039c	-0.13770908
100	0xbe1e4048	-0.15454209
101	0x3d03a80e	0.03214269
102	0x3da9dd8a	0.08294208
103	0xbd7733d2	-0.060352154
104	0xbe29055f	-0.16505955
105	0xbe6d58e7	-0.23178445
106	0x3e83522e	0.25648636
107	0x3e84d5e6	0.25944442
108	0xbdcc625d	-0.09979699
109	0x3e30e002	0.17272952
110	0xbe90c8ec	-0.2827829
111	0xbe587be9	-0.21141018
112	0xbe9898c1	-0.29804042
113	0x3e94aaa3	0.29036435
114	0xbdeb03a8	-0.11475307
115	0x3d8cebcf	0.068809144
116	0x3e56768b	0.20943658
117	0x3e94f59f	0.29093644
118	0xbe4dfd34	-0.2011612
119	0x3d567bd5	0.05236419
120	0xbe905a97	-0.28194115
121	0x3ddb65da	0.10712786
122	0x3e702aec	0.23453873
123	0xbe0287b9	-0.12747087
124	0xbd8c0bd5	-0.06838194
125	0xbe05c17e	-0.13062093
126	0xbe20ed53	-0.15715532
127	0xbd550555	-0.05200704

get_operations.0.gnn_layers.0.project.2.weight f4 [128, 128]
0	0x3cafb100	0.021446705
1	0x3ccaf20a	0.024773616
2	0x3dcc4f32	0.09976043
3	0xbd661f43	-0.056182157
4	0x3daef2a8	0.08542377
5	0x3d95d5f9	0.07316203
6	0xbc9e80ab	-0.019348463
7	0xbd023047	-0.031784322
8	0x3da22d1a	0.07918759
9	0xbd9b4a73	-0.075825594
10	0xbd2260b9	-0.039643023
11	0x3dafe58d	0.08588705
12	0x3d0eac1d	0.03483211
13	0xbdc7c239	-0.09753842
14	0x3de00fcf	0.10940515
15	0xbd28aef9	-0.041182492
16	0x3cca25d5	0.024676243
17	0xbd9ad461	-0.07560039
18	0x3d347085	0.04405262
19	0x3d7e243a	0.062046267
20	0xbc212cad	-0.009837312
21	0x3db047d2	0.08607449
22	0x3cd163bf	0.025560258
23	0x3c0a4bbf	0.008440911
24	0xbcd2444c	-0.025667332
25	0x3d1aced7	0.037794914
26	0xbd31544a	-0.043293275
27	0xbdae0722	-0.08497454
28	0x3d0321f6	0.03201481
29	0x3d040433	0.032230567
30	0x3c947ea5	0.018126795
31	0xbd9f424a	-0.077763155
32	0xbd87a850	-0.066239
33	0x3d1510ff	0.036393162
34	0x3d22508d	0.0396276
35	0xbd05f7a9	-0.03270689
36	0x3a177631	0.0005777805
37	0xbce5bb7b	-0.0280435
38	0xbcec5c81	-0.028852703
39	0xbc135d5a	-0.008994425
40	0xbd71b3de	-0.059009425
41	0x3daea449	0.08527429
42	0x3d4463fb	0.04794691
43	0x3c5b4746	0.013383692
44	0x3c20e8f5	0.009821166
45	0xbacd059e	-0.0015641933
46	0xbd852b52	-0.06502403
47	0x3d7be83b	0.06150077
48	0xbd52a77f	-0.051429268
49	0x3d9bbb52	0.07604088
50	0xbcbd171e	-0.023082312
51	0xbd31d3cf	-0.043414887
52	0xbd7d9131	-0.061906043
53	0xbd5f67e8	-0.054542452
54	0x3c7abd80	0.015303969
55	0xb9e804be	-0.00044254021
56	0x3b60465d	0.0034221627
57	0xbb85a3d9	-0.00407837
58	0xbd4b80b4	-0.049683288
59	0xbccd2d12	-0.025045905
60	0xbd6a501c	-0.057205305
61	0x3cd0179c	0.025401883
62	0xbde088d3	-0.10963597
63	0x3d6dd618	0.058065504
64	0x3d309f21	0.043120507
65	0x3db79df2	0.089656726
66	0x3d92cfd7	0.071685486
67	0xbdf7e9fb	-0.12105175
68	0x3db430e4	0.08798388
69	0xbd7ce1e3	-0.06173886
70	0x3d29aa4a	0.041422166
71	0x3d115517	0.03548154
72	0x3dbb272c	0.09138331
73	0x3cc6cc84	0.024267443
74	0xbc502cf9	-0.012706035
75	0x3d9cf71d	0.076643206
76	0x3cb0262f	0.021502582
77	0x3d54b2ad	0.05192821
78	0xbcfd7707	-0.030940546
79	0xbd86bf32	-0.06579436
80	0x3cb0c27f	0.021577118
81	0xbd1a4251	-0.0376609
82	0x3c1a0c15	0.009402295
83	0xbcc5e2c4	-0.024155982
84	0x3d687242	0.05674959
85	0x3de76437	0.11298411
86	0x3a4e32b8	0.0007865834
87	0x3cd5aacd	0.02608242
88	0xbd58058e	-0.052739672
89	0x3d632120	0.055451512
90	0x3d94592f	0.07243573
91	0x3dc8b3ae	0.09799896
92	0x3d4e72fc	0.050402626
93	0x3d4e8f98	0.05042991
94	0x3d713373	0.058886956
95	0xbd22d33f	-0.03975224
96	0x3c8cc088	0.01718165
97	0xbd7b5af9	-0.061366055
98	0x3c1bd38d	0.009510887
99	0xbd9d80a2	-0.076905504
100	0x3cb938b4	0.022610046
101	0xbbf0e675	-0.0073516914
102	0xbc1ca28f	-0.009560241
103	0xbdbf5d45	-0.093439616
104	0x3d4cb6f5	0.04997917
105	0x3d78d09f	0.06074583
106	0x3d5ae3d7	0.05343994
107	0xbbee7bb5	-0.0072779306
108	0x3c2df23b	0.010616834
109	0x3bcecb72	0.0063108737
110	0x3da465dd	0.080272414
111	0xbd553b9b	-0.052058797
112	0xbc5d8fd4	-0.013523061
113	0x3c8ac672	0.01694033
114	0x3cf864e7	0.030321551
115	0x3d6dbb4a	0.05803994
116	0xbcbc2317	-0.02296595
117	0x3ce5b106	0.028038513
118	0xbd33d052	-0.04389984
119	0x3cc6c6b9	0.02426468
120	0x3d08efb9	0.033431742
121	0xbdc1a959	-0.094561286
122	0x3c71aea3	0.014751109
123	0xbd7464f0	-0.059666574
124	0x3da287e0	0.07936072
125	0xbcd1d88d	-0.025615955
126	0xbd271319	-0.040789697
127	0xbdb6d203	-0.08926775
128	0x3cacd4ce	0.021097567
129	0x3db31aa6	0.08745317
130	0x3ca67657	0.0203201
131	0xbd4696da	-0.048483707
132	0xbcb145c6	-0.021639716
133	0x3d7c220a	0.0615559
134	0xbbea5f69	-0.007152487
135	0x3db2d634	0.08732262
136	0x3ce7e11c	0.028305583
137	0x3d6ea705	0.05826475
138	0x3d91ef53	0.071257256
139	0x3daa12e6	0.08304386
140	0x3c86cb2b	0.0164543
141	0xbd70bba1	-0.058772687
142	0xbd7ea98e	-0.06217342
143	0xbc667569	-0.014066079
144	0x3d0df054	0.034653023
145	0x3d879fc7	0.06622272
146	0x3d6a8a5e	0.057260863
147	0xbdb389e1	-0.08766533
148	0xbd437dbf	-0.047727343
149	0x3d972dc5	0.07381777
150	0xbd1eddc4	-0.03878571
151	0xbcd7c79d	-0.0263403
152	0x3cbb3025	0.022850106
153	0x3d7432db	0.059618812
154	0x3d53068e	0.051519923
155	0xbd01f41f	-0.031726953
156	0xbc506be4	-0.012721036
157	0x3dd429a9	0.103595085
158	0x3d98102c	0.074249595
159	0x3d124c6d	0.035717417
160	0x3daa6264	0.08319548
161	0xbdaaec0e	-0.08345805
162	0x3d3ccd9d	0.046094526
163	0x3d99dc27	0.07512694
164	0xbd96efd0	-0.07369959
165	0x3cf79d57	0.030226393
166	0x3ce90034	0.02844248
167	0x3d2f2b3c	0.04276584
168	0x3da1ecb4	0.07906476
169	0x3c24b01b	0.010051752
170	0x3d01386c	0.03154795
171	0x3c9beae2	0.0190329
172	0x3d9f01da	0.07764025
173	0x3c9808f1	0.018558951
174	0xbd01c796	-0.03168448
175	0xbd5a7a6c	-0.053339407
176	0xbd96396a	-0.073351696
177	0x3ccfd1f9	0.025368677
178	0xbd0a3001	-0.033737186
179	0x3d5194c1	0.051167253
180	0x3c75c7bc	0.015001234
181	0x3c984ca2	0.018591229
182	0xbd02647c	-0.03183411
183	0x3cdc3bcf	0.026883988
184	0x3dc02f72	0.093840495
185	0xbd4395d4	-0.04775031
186	0x3d2f8b89	0.04285768
187	0x3da2dafc	0.07951924
188	0xbd9ebd87	-0.07750993
189	0xbd8c22f5	-0.06842605
190	0xbdd4b252	-0.103855744
191	0x3daaf4fc	0.08347508
192	0x3d75a1db	0.05996881
193	0xbca487b1	-0.020084234
194	0x3daee65c	0.08540031
195	0x3bf93157	0.0076047587
196	0x3d995ae2	0.07488038
197	0xbd0c7528	-0.034291416
198	0x3db3a2e2	0.08771302
199	0x3d086563	0.033299815
200	0x3db31f67	0.08746224
201	0xbd3ee67e	-0.046606533
202	0x3d4b7c12	0.04967887
203	0x3d8c3a60	0.06847072
204	0xbb83fe7b	-0.004028139
205	0x3d52bd5a	0.05145011
206	0xbd8ac0ab	-0.0677503
207	0xbd2c62d8	-0.042086452
208	0xbd769bfe	-0.06020736
209	0x3dd16cbb	0.10225817
210	0x3d0d7d93	0.034543585
211	0xbd46730c	-0.04844956
212	0x3db4c3e2	0.08826424
213	0x3ca8bfde	0.020599302
214	0xbd0d9877	-0.03456923
215	0xbc83968e	-0.016063001
216	0xbcc5b908	-0.024136081
217	0xbd8a24e1	-0.06745315
218	0x3ae265f9	0.0017272822
219	0xbbc71a92	-0.0060761655
220	0x3d889dd7	0.066707306
221	0x3b9fb1a9	0.0048734737
222	0xbda82214	-0.08209625
223	0xb9a5b4ef	-0.00031606058
224	0xbdd270f0	-0.10275447
225	0xbd864a03	-0.06557085
226	0x3d3bccdd	0.04584967
227	0x3d20bf86	0.03924515
228	0x3d55bb52	0.052180596
229	0xbc929502	-0.017893318
230	0xbaf059d4	-0.0018337318
231	0xbd212a53	-0.039347004
232	0xba2909f2	-0.00064483203
233	0x3d1d8ad0	0.03846246
234	0x3c07fe5b	0.008300389
235	0x3db07fca	0.08618124
236	0x3c382487	0.011239178
237	0x3c693ec4	0.014236156
238	0x3cb5e813	0.022205388
239	0xbd79b681	-0.060965065
240	0xbc9ced65	-0.019156167
241	0x3ca23c46	0.019804131
242	0xbb559ad6	-0.003259351
243	0xbd447421	-0.04796231
244	0x3c7d59c4	0.015463296
245	0xbcb92c40	-0.022604108
246	0x3dd6e5d7	0.10493057
247	0x3ca17002	0.01970673
248	0x3d7ab3ac	0.061206505
249	0xbd602fcb	-0.05473308
250	0xbd1aeb30	-0.03782195
251	0xbc9b8f24	-0.018989153
252	0x3cec781c	0.028865866
253	0x3d6d1902	0.057885177
254	0x3dba5f83	0.09100249
255	0x3c248df6	0.010043612

get_operations.0.gnn_layers.0.project.2.bias f4 [128]
0	0xbd885763	-0.06657293
1	0x3d13328e	0.035936885
2	0xbb8e62f2	-0.0043452913
3	0x3ceaf798	0.028682515
4	0xbcb2e4ef	-0.02183768
5	0xbb35e73e	-0.002775624
6	0xbcc84c8c	-0.024450563
7	0x3d75ab7b	0.05997799
8	0xbc59449a	-0.013260985
9	0xbcdf9b67	-0.027295781
10	0xbd99e8b8	-0.07515091
11	0xbd84627e	-0.064640984
12	0xbcbc1283	-0.022958046
13	0xba894966	-0.0010474145
14	0xbd64fb6f	-0.05590385
15	0xbd884260	-0.06653285
16	0xbd207909	-0.039177928
17	0xbd9eb183	-0.077487014
18	0x3c3b48a8	0.011430897
19	0xbd3fbf27	-0.046813156
20	0xbd13853f	-0.036015745
21	0x3bee809e	0.007278516
22	0xbda0a1fb	-0.07843395
23	0x3ccd9360	0.025094688
24	0x3dadd290	0.08487427
25	0x3d5bd5a5	0.053670544
26	0xbd5ec082	-0.05438281
27	0x3c2e027f	0.010620712
28	0x3d8c6899	0.06855888
29	0x3d75de1e	0.06002628
30	0x3a03c992	0.000502729
31	0xbd28807f	-0.04113817
32	0x3d518437	0.05115148
33	0x3d07fb5e	0.033198707
34	0x3d4298e9	0.047509108
35	0x3d81e623	0.06342723
36	0x3daa10ec	0.08304009
37	0xbd7091f1	-0.05873293
38	0xbd8233c1	-0.063575275
39	0x3da2bc91	0.079461224
40	0xbd214768	-0.03937474
41	0x3c6cdfb1	0.014457629
42	0x3d8399af	0.06425797
43	0xbd40ef32	-0.047103114
44	0x3b80ed47	0.0039345357
45	0xbd9307be	-0.07179211
46	0x3dbd4bd1	0.092429765
47	0x3caa96e6	0.020823907
48	0xbcb668e3	-0.02226681
49	0x3ca20bcb	0.019781014
50	0x3db6f097	0.089326076
51	0x3c9d8f09	0.019233244
52	0xbd9212da	-0.07132502
53	0x3dbf49a6	0.09340219
54	0xbd221cf4	-0.039578393
55	0x3c82cb34	0.015966035
56	0xbdb5571c	-0.088545054
57	0x3ca1b6ad	0.019740427
58	0x3d86db6d	0.06584821
59	0xbd4b6fd8	-0.04966721
60	0xbd828571	-0.06373108
61	0x3d109839	0.03530142
62	0x3d9c74a1	0.07639433
63	0x3cbbdcf7	0.022932513
64	0x3d792ab6	0.060831748
65	0x3d95825b	0.07300254
66	0xbc9b2af5	-0.018941382
67	0x3d57fb24	0.05272974
68	0xbd779f23	-0.0604545
69	0xbcd8b6c8	-0.026454344
70	0x3ced7c28	0.028989866
71	0xbdbfd7b0	-0.09367311
72	0x3a4df52f	0.00078566646
73	0xbd61adc1	-0.055097345
74	0x3d8d9406	0.06912999
75	0x3dbd99d5	0.09257857
76	0x3d830f29	0.06399376
77	0x3d964eaa	0.07339223
78	0xbcccdc55	-0.025007406
79	0xbd27ed59	-0.040997837
80	0xbc3a5b39	-0.011374288
81	0xbcc58028	-0.024108961
82	0x3d9031a7	0.070407204
83	0xbae3685d	-0.0017349828
84	0xbd25b30f	-0.040453967
85	0xbb95b602	-0.004568816
86	0xbd2c5335	-0.04207154
87	0xbd3e303d	-0.046432722
88	0x3d4eda0e	0.050500922
89	0x3da239d7	0.07921188
90	0xbd6f40f8	-0.05841157
91	0xbd85e374	-0.06537524
92	0xbd9fadb4	-0.07796803
93	0x3d8ce3b9	0.06879372
94	0xbd3865d1	-0.045018975
95	0xbd338f02	-0.043837555
96	0xbd1468dd	-0.036232818
97	0x3da5479c	0.08070299
98	0xbbebb1dc	-0.0071928333
99	0xbc6c8221	-0.014435322
100	0x3d86ec06	0.06587987
101	0x3d4af112	0.04954631
102	0x3d9cfaa8	0.076649964
103	0xbd298120	-0.04138291
104	0xbd64ab87	-0.055827644
105	0x3d38e77e	0.045142643
106	0x3d249da3	0.040189397
107	0xbcf52068	-0.029922679
108	0xbd13358f	-0.03593975
109	0x3c4bbb5d	0.012434808
110	0xbd6144c8	-0.054997236
111	0x3d73380e	0.05937963
112	0x3dc5e824	0.09663418
113	0x3bfa2150	0.0076333657
114	0xbd45de23	-0.04830755
115	0xbc89f36b	-0.016839704
116	0x3d90696d	0.07051358
117	0xbd815332	-0.06314696
118	0x3db9481a	0.090469554
119	0x3d4dca64	0.050241843
120	0xbd279643	-0.040914785
121	0xbdc39baf	-0.09551179
122	0xbcb12f1e	-0.021628913
123	0x3da62b3d	0.08113716
124	0x3cb7248a	0.02235629
125	0xbcbb4592	-0.022860322
126	0x3d80cbe3	0.06288888
127	0xbd41433b	-0.047183257

get_operations.0.gnn_layers.0.project.4.weight f4 [8, 128]
0	0x3d32e310	0.043673575
1	0xbcdcf8d3	-0.026974117
2	0xbd36e1ac	-0.04464881
3	0xbcb77ca9	-0.02239831
4	0x3d85426c	0.065068096
5	0xbd83fd12	-0.06444754
6	0xbab405a2	-0.0013734589
7	0xbd90642a	-0.07050355
8	0x3b713d4b	0.0036810215
9	0xbce10a69	-0.027470784
10	0x3d3e9e61	0.04653776
11	0x3d6d2472	0.057896085
12	0x3d4dfde0	0.050290942
13	0x3d2b7cc8	0.041867048
14	0xbd0b5fac	-0.034026787
15	0xbd2f69d8	-0.04282555
16	0x3d861f78	0.06548971
17	0xbdbc5cca	-0.091973856
18	0x3bb27309	0.005445842
19	0xbd909973	-0.07060518
20	0xbd29ee8c	-0.04148726
21	0x3d72a251	0.05923683
22	0x3d3ed837	0.046592917
23	0x3b571dd2	0.003282417
24	0xbcde14ce	-0.02710953
25	0x390b5f44	0.00013291562
26	0x3dbf7513	0.09348502
27	0xbd3691f9	-0.044572804
28	0xbd6e7894	-0.05822046
29	0x3d999a88	0.075001776
30	0x3d7b31e9	0.061326895
31	0x3d83331b	0.06406232
32	0xbd149e93	-0.03628404
33	0xbb82b729	-0.0039891195
34	0x3c8705a8	0.01648219
35	0x3d83a57b	0.06428047
36	0xbb942169	-0.0045205844
37	0x3d13f489	0.03612188
38	0xbd80fb68	-0.06297952
39	0x3d313f52	0.043273278
40	0x3c9723c5	0.018449673
41	0xbc144977	-0.0090507185
42	0x3a538c9f	0.00080699654
43	0xbc837244	-0.016045697
44	0xbd912fec	-0.070892185
45	0xbd99747a	-0.07492919
46	0xbd70f395	-0.058826048
47	0x3c137de5	0.009002184
48	0x3c0428ff	0.008066415
49	0x3d9585c8	0.073009074
50	0x3d97d33c	0.07413337
51	0xbdc14c76	-0.09438412
52	0x3d0da83a	0.03458426
53	0x3d845f00	0.06463432
54	0x3d0405a5	0.032231946
55	0x3d6e29ad	0.058145214
56	0x3d28794b	0.0411313
57	0x3d42d9b2	0.04757089
58	0xbdb37d5b	-0.08764144
59	0x3d6562b4	0.056002334
60	0x3d652d06	0.05595114
61	0x3d229b3e	0.03969883
62	0xbc759861	-0.014989943
63	0x3db29c2f	0.08721196
64	0xbd4f3104	-0.050583854
65	0xbdcb1f64	-0.09918097
66	0x3d525840	0.051353693
67	0xbdc32ceb	-0.09530052
68	0xbc124d14	-0.00892951
69	0xbd41b86d	-0.047295023
70	0xbdce9956	-0.1008784
71	0x3d9ab04d	0.07553158
72	0x3d833424	0.064064294
73	0xbdc62b5b	-0.09676238
74	0xbdabf99f	-0.08397221
75	0xbc45a1a8	-0.012062468
76	0xbdbd5647	-0.09244972
77	0xbd06f2b3	-0.0329463
78	0xbc0440dd	-0.008072105
79	0x3d18abe2	0.037273295
80	0x3db0250a	0.08600815
81	0x3d9d17a3	0.07670524
82	0x3d8c8ade	0.06862424
83	0x3d47832c	0.04870908
84	0x3d41e064	0.047333136
85	0x3c9af642	0.018916253
86	0x3c16a8c1	0.0091955075
87	0x3da32b09	0.07967193
88	0xbdab39f3	-0.08360662
89	0x3d8fb8f7	0.07017701
90	0xbba8bbe5	-0.005149352
91	0xbd126b66	-0.035746954
92	0x3db7d87d	0.08976839
93	0xbcff4863	-0.031162446
94	0x3da695d1	0.08134044
95	0x3c932454	0.017961659
96	0x3ced8146	0.028992306
97	0x3cecc529	0.028902607
98	0xbd808553	-0.062754296
99	0x3bb77b6d	0.0055994303
100	0xbd29cb4b	-0.04145364
101	0xbda49986	-0.08037095
102	0xbd03a99c	-0.032144174
103	0xbd8cc564	-0.06873587
104	0xbc7ade04	-0.015311722
105	0x3d4fe076	0.050751172
106	0x3d887e38	0.06664699
107	0xbb652c47	-0.0034969018
108	0xbc77a998	-0.015116118
109	0xbd4d6bfb	-0.050151806
110	0x3ae83f94	0.0017719143
111	0x3daef9b8	0.08543724
112	0x3db23bb8	0.08702797
113	0x3ccba43a	0.024858583
114	0x3cc7af37	0.024375541
115	0x3ca82889	0.020527141
116	0xbc9dbc8e	-0.019254949
117	0xbd7bd156	-0.061478935
118	0xbcffce04	-0.031226166
119	0x3d63e755	0.055640537
120	0xbd5064cc	-0.050877377
121	0x3c9354be	0.017984744
122	0xbd1df086	-0.03855946
123	0xbbbed916	-0.0058242185
124	0x3daef67e	0.085431084
125	0xbd8163c2	-0.063178554
126	0x3bdf1f9a	0.006809187
127	0xbd175257	-0.03694376
128	0xbdbe6156	-0.09295909
129	0xbb4a8241	-0.0030900391
130	0xbd30d2c8	-0.043169767
131	0x3b97c270	0.004631333
132	0x3ac9d084	0.0015397226
133	0xbc0a6113	-0.008445996
134	0xbdb5ec9b	-0.088830195
135	0xbd8be328	-0.06830436
136	0x385104db	4.9834005e-05
137	0x3d9bebee	0.076133594
138	0xbd43695e	-0.047707908
139	0x3da84535	0.08216325
140	0x3d0f70d8	0.035019726
141	0xbb8bde97	-0.004268478
142	0x3ace7814	0.0015752339
143	0x3db36f7c	0.08761498
144	0xbd3ff36b	-0.046863
145	0xbc6c380c	-0.0144176595
146	0x3d7f1594	0.062276438
147	0x3dabe348	0.0839296
148	0x3db0ae7d	0.08627031
149	0x3dcb96fa	0.09940906
150	0xbd09de2d	-0.03365915
151	0x3d07562d	0.033041168
152	0x3d1bf343	0.03807379
153	0x3da6b685	0.081402816
154	0x3d8a9eb7	0.06768554
155	0x3d7c666b	0.06162111
156	0x3d3c6985	0.04599907
157	0x3d21b3c2	0.03947807
158	0xbd1b93c5	-0.03798272
159	0x3d818136	0.06323473
160	0x3ca32547	0.019915236
161	0x39ea5ec0	0.00044702552
162	0x3dbcd148	0.09219605
163	0x3d26d300	0.04072857
164	0xbce751de	-0.02823728
165	0x3d87a15d	0.066225745
166	0x3a934f8c	0.0011238917
167	0xbcb1e3b0	-0.021715015
168	0xbd90bfc0	-0.070678234
169	0x3d0f555b	0.03499351
170	0x3dac7113	0.08420005
171	0x3d8b3aba	0.067983106
172	0xbd39239b	-0.04519997
173	0xbd987657	-0.074444465
174	0xbd1202ba	-0.03564713
175	0x3da1f0dc	0.079072684
176	0x3d90c9c9	0.070697375
177	0x3d90e84f	0.07075559
178	0x3d273194	0.040818766
179	0xbd9dab26	-0.076986596
180	0x3da6bc2f	0.08141362
181	0x3d6c577c	0.05770062
182	0x3d41275b	0.047156673
183	0xbca699b1	-0.020336958
184	0xbd60e320	-0.054904103
185	0xbaf3da49	-0.0018604483
186	0xbd08a6d5	-0.03336223
187	0x3d55a392	0.052157946
188	0x3cd9dd09	0.026594656
189	0x3d8d5062	0.069000974
190	0x3d93a962	0.072100416
191	0xbc5b53fa	-0.013386721
192	0xbdc14077	-0.09436124
193	0xbdc0f18e	-0.09421073
194	0xbc485c92	-0.012229102
195	0xbdb717a8	-0.08940059
196	0x3c9f35e5	0.019434879
197	0x3d2fce83	0.042921554
198	0x3d50e1e0	0.05099666
199	0xbdc58616	-0.096447155
200	0x3d984baa	0.07436307
201	0xbde23bdc	-0.110465735
202	0xbd876d74	-0.066126734
203	0x3ce63dd3	0.028105652
204	0xbdb3f6ca	-0.08787306
205	0x3ddc526a	0.10757907
206	0xbd2610de	-0.04054343
207	0x3d433af2	0.047663637
208	0xbd9831af	-0.074313514
209	0xbd0460b9	-0.032318804
210	0xbcd2adee	-0.025717702
211	0x3dde1688	0.10844141
212	0xbbe2b890	-0.006918974
213	0x3ccd7547	0.025080336
214	0xbb31a47e	-0.0027106102
215	0xbd0bf5e6	-0.034170054
216	0xbd645351	-0.05574352
217	0x3c3d6b60	0.011561245
218	0xbbb1a801	-0.005421639
219	0x3cddaa00	0.027058601
220	0xbd876cdb	-0.066125594
221	0xbd5f4311	-0.05450732
222	0xbd145641	-0.03621507
223	0xbc4b2723	-0.012399468
224	0x3d3b0774	0.045661405
225	0xbd8fee44	-0.070278674
226	0xbc21e6da	-0.009881699
227	0xbb51124f	-0.0031901782
228	0x3c2a3665	0.010388945
229	0x3cbb0e11	0.022833856
230	0xbda4154e	-0.08011876
231	0x3c9dc8d8	0.019260809
232	0xbd39dff4	-0.045379594
233	0xbdbfb26e	-0.09360205
234	0xbd7a5827	-0.061119225
235	0xbd5c61f4	-0.053804353
236	0x3d652c50	0.055950463
237	0x3da6ef7f	0.08151149
238	0x3d7a86c0	0.061163664
239	0x3cd5ef06	0.026114952
240	0x3dc24efa	0.0948772
241	0xbc6f96d5	-0.0146233635
242	0xbd536aeb	-0.051615637
243	0x3b132ebc	0.0022458276
244	0xbda21da8	-0.07915813
245	0x3c954c93	0.01822499
246	0xbcc66573	-0.024218297
247	0x3c9f7fff	0.019470213
248	0xbbec5205	-0.007211926
249	0xbd6b3dab	-0.057431858
250	0xbc38474d	-0.011247468
251	0x3dc1dd30	0.09466016
252	0xbcddadf3	-0.027060485
253	0x3d8578ac	0.06517157
254	0xbd06402b	-0.03277604
255	0x3d11632b	0.035494965

get_operations.0.gnn_layers.0.project.4.bias f4 [8]
0	0xbd704f5a	-0.058669426
1	0xbd1f0f4f	-0.03883296
2	0xbd66a879	-0.05631301
3	0xbd50b541	-0.050954107
4	0xbd9e2f0c	-0.07723817
5	0xbd411a12	-0.047144003
6	0x3db2d354	0.08731714
7	0xbac2e553	-0.0014869369

get_operations.0.gnn_layers.1.project.0.weight f4 [128, 6]
0	0x3c739970	0.014868125
1	0x3c60e00e	0.013725294
2	0x3e6f39be	0.2336187
3	0x3ea8417d	0.32862464
4	0x3ed5c655	0.41752878
5	0x3ce273f0	0.027643174
6	0x3e13b887	0.1442586
7	0xbccb6d3c	-0.02483236
8	0x3ea14860	0.3150053
9	0xbeca0fff	-0.3946533
10	0xbe042714	-0.12905532
11	0x3e59414b	0.21216314
12	0x3dfb83f2	0.12281026
13	0xbea797af	-0.32732913
14	0x3e1cec60	0.15324545
15	0x3e6769ac	0.22598904
16	0xbe7c3def	-0.24633001
17	0xbea1f8d2	-0.31635147
18	0xbec06ad8	-0.37581515
19	0xbee333b9	-0.443754
20	0x3e0dfdf0	0.138664
21	0xbe3ed3e5	-0.18635519
22	0x3e7bf2b2	0.246043
23	0x3e897a1b	0.26850972
24	0x3dc187d1	0.09449733
25	0xbda3c874	-0.07997218
26	0x3dadf941	0.08494807
27	0xbc75d9cc	-0.01500554
28	0xbde4d10b	-0.11172684
29	0x3eb0bb8b	0.34518084
30	0xbd96bf48	-0.07360703
31	0x3edf5877	0.4362218
32	0xbe1fba85	-0.15598495
33	0xbebd590a	-0.36981994
34	0x3dd23085	0.102631606
35	0x3eae87ea	0.3408807
36	0x3e93c6d5	0.28862634
37	0x3ebf09f1	0.37312272
38	0xbda92a56	-0.08260028
39	0x3cc51e26	0.024062227
40	0x3ebb8c2a	0.36630374
41	0x3d6b53c9	0.05745295
42	0xbda6d707	-0.08146482
43	0x3d480f20	0.04884255
44	0xbe48b738	-0.19601142
45	0xbd8a3bbc	-0.06749675
46	0xbe965ba2	-0.29366785
47	0xbede0ba2	-0.4336825
48	0xbe1ece36	-0.1550835
49	0x3db62e25	0.0889552
50	0x3e44858d	0.1919157
51	0x3d882e18	0.06649417
52	0xbebf28d4	-0.37335837
53	0x3edf3d5c	0.436015
54	0xbed2ce0b	-0.41172823
55	0x3a7625e5	0.0009389802
56	0x3ed34e3d	0.4127063
57	0x3ec54026	0.38525504
58	0xbebef783	-0.3729821
59	0xbeea1f5b	-0.45727047
60	0x3de2ba30	0.11070669
61	0x3cb79273	0.0224087
62	0xbdd6396f	-0.10460173
63	0x3d8a4c1c	0.06752798
64	0xbe6faaaa	-0.23404947
65	0x3e662c62	0.22477868
66	0x3dbc1a97	0.09184759
67	0xbe825a96	-0.25459737
68	0x3eb450a1	0.35217765
69	0x3e92b139	0.28650835
70	0xbe810192	-0.2519651
71	0xbe861cbf	-0.26193807
72	0x3cd741a6	0.02627642
73	0xbeb9cb8c	-0.36288106
74	0xbe2ce00e	-0.16882345
75	0x3e6b2a97	0.22965465
76	0x3ebfc56d	0.3745531
77	0xbeb47ac2	-0.35249907
78	0x3ebed6e3	0.3727332
79	0x3e8f05fb	0.2793425
80	0x3e11d990	0.1424315
81	0xbc169519	-0.009190821
82	0xbec5cd37	-0.3863313
83	0x3e47d317	0.19514118
84	0xbe155c8a	-0.14586082
85	0x3ea440fc	0.3208083
86	0xbe4d3392	-0.20039204
87	0x3eab19fe	0.33418268
88	0x3ebc4edb	0.36778912
89	0xbeb8defd	-0.36107627
90	0xbed3d85c	-0.41376007
91	0x3e1e12db	0.1543688
92	0xbe4783d3	-0.1948388
93	0xbe686845	-0.22696026
94	0xbeaf133c	-0.34194362
95	0x3e8b4925	0.27204242
96	0x3eb7fac6	0.35933512
97	0x3e4783fd	0.19483943
98	0xbd2dc6a6	-0.042425774
99	0xbe6a4312	-0.22877148
100	0x3ebb05dd	0.3652791
101	0xbe74ce9e	-0.23906943
102	0xbe1f7901	-0.15573503
103	0xbe2493ba	-0.16071978
104	0xbec7575d	-0.3893384
105	0x3e075d5b	0.13219206
106	0x3d8a8ada	0.06764765
107	0xbd83bfff	-0.06433105
108	0x3e221e27	0.15831815
109	0xbe07fa02	-0.13278964
110	0xbd779acb	-0.060450356
111	0xbe5a07d7	-0.21292053
112	0xbe745cf7	-0.23863588
113	0x3ebca201	0.3684235
114	0xbe156cb0	-0.14592242
115	0xbdaa7246	-0.08322577
116	0x3e34f24a	0.17670551
117	0xbe7a632d	-0.24451895
118	0xbe835937	-0.25654003
119	0x3ddc1dfc	0.107479066
120	0x3e3fb530	0.18721461
121	0x3e900ab8	0.28133178
122	0xbe82512f	-0.25452563
123	0xbecb605b	-0.3972195
124	0x3e0526e0	0.13003111
125	0x3e2195cb	0.15779798
126	0x3dbf2cb8	0.09334701
127	0xbe92d346	-0.28676814
128	0xbe4181bc	-0.18897146
129	0xbd99802d	-0.07495151
130	0xbe5d403d	-0.21606536
131	0xbeb65fb8	-0.35619903
132	0x3e1de3ec	0.15418977
133	0x3ddba3ea	0.107246235
134	0x3e82ecf1	0.25571397
135	0x3eaf3ceb	0.34226164
136	0x3d9667fa	0.07344051
137	0xbe10d84d	-0.14145012
138	0x3e874796	0.26421803
139	0x3e9aa8b1	0.30206826
140	0x3ea20e15	0.3165137
141	0x3e263e05	0.16234596
142	0x3dab67eb	0.0836943
143	0xbe4dadaa	-0.20085779
144	0x3d16a869	0.036781702
145	0xbe8785bf	-0.26469228
146	0xbe681dd3	-0.22667627
147	0x3e5f6db6	0.21819195
148	0x3d2d5f69	0.04232732
149	0x3e48f495	0.1962455
150	0xbe53638f	-0.20643447
151	0xbe8d66e8	-0.27617574
152	0x3d82b95d	0.063830115
153	0x3db7fd34	0.089838415
154	0xbeb8a9a8	-0.36066937
155	0x3eab44dc	0.33450973
156	0x3de1e3f6	0.11029808
157	0x3ea3928f	0.31947753
158	0x3b1d8c15	0.0024039794
159	0xbed1a8ab	-0.40948996
160	0xbca64ea1	-0.020301165
161	0xbe84bc34	-0.25924838
162	0x3c08ac51	0.008341865
163	0xbebb753b	-0.36612877
164	0x3e140460	0.14454794
165	0x3ec43870	0.38324308
166	0x3ec0156b	0.3751634
167	0x3ec8774b	0.39153513
168	0xbe9ee895	-0.3103682
169	0xbe2beb5e	-0.16789004
170	0x3e3c3299	0.18378676
171	0x3eb343a1	0.35012534
172	0x3dbaa375	0.09113208
173	0xbe37609b	-0.17907946
174	0x3e4ed80d	0.20199604
175	0x3d181a20	0.03713429
176	0x3dae2009	0.08502204
177	0xbe67ab6f	-0.2262399
178	0xbe167d54	-0.14696246
179	0x3e07624a	0.13221088
180	0x3eaa9ce4	0.33322823
181	0xbe7f81f4	-0.24951917
182	0x3d135e5c	0.03597866
183	0xbb3832b5	-0.0028106396
184	0x3df1ec7c	0.11812684
185	0xbdbde68d	-0.0927249
186	0xbec98175	-0.3935658
187	0x3e3460d7	0.17615066
188	0x3e5ab6c8	0.21358788
189	0xbd61336b	-0.054980677
190	0xbeca7b5e	-0.39547247
191	0xbdf7d100	-0.121004105
192	0x3c7a41e7	0.015274501
193	0x3eb3abd1	0.35092023
194	0xbe4c8561	-0.19972755
195	0xbe34c1a8	-0.17651999
196	0x3ecaae28	0.39585996
197	0x3e291587	0.16512118
198	0xbeaecb61	-0.3413954
199	0xbdcce19a	-0.100039676
200	0xbda6fc19	-0.081535526
201	0x3e4d9014	0.20074493
202	0xbe24a127	-0.160771
203	0xbdf970bb	-0.12179705
204	0xbe97b5a4	-0.29630768
205	0xbbdd4d71	-0.0067536165
206	0x3e090de3	0.13384204
207	0xbe5a50f7	-0.21319948
208	0x3dc2836c	0.09497723
209	0xbd4906f5	-0.0490789
210	0x3ec2713b	0.37977013
211	0xbe9b65c4	-0.3035108
212	0x3e60e9b5	0.21964152
213	0xbdd9ee6c	-0.106411785
214	0xbe76c44c	-0.24098319
215	0x3e7e645b	0.2484297
216	0x3e8d6d12	0.27622277
217	0xbeacd510	-0.33756304
218	0x3ea35a74	0.31904948
219	0xbec5573f	-0.38543126
220	0xbe0e4eb4	-0.1389721
221	0xbea89d9c	-0.32932746
222	0xbee44e3d	-0.4459094
223	0x3e6262e6	0.2210804
224	0x3e17ee97	0.14837109
225	0x3ed76efc	0.42076862
226	0x3e06f1d6	0.1317819
227	0x3dc5025d	0.096195914
228	0xbee671a6	-0.45008582
229	0x3e6bd9f3	0.2303236
230	0x3ed1faf2	0.4101177
231	0xbda1c40d	-0.07898722
232	0xbea0848c	-0.31351125
233	0xbbdf7291	-0.0068190773
234	0xbe015fd7	-0.12634216
235	0x3ea3b3dd	0.31973162
236	0x3e3e22db	0.18567984
237	0x3e915bd0	0.2839036
238	0x3e7e38a1	0.2482629
239	0x3ebca7dd	0.3684682
240	0xbeca430c	-0.39504278
241	0xbe9aec5f	-0.30258462
242	0xbdfb79b0	-0.122790694
243	0xbdc3c142	-0.095583454
244	0xbec5febe	-0.38670915
245	0xbeb848ec	-0.35993135
246	0xbeb326c0	-0.349905
247	0x3ec7620f	0.38942
248	0x3e76c2c7	0.24097739
249	0x3ea8b266	0.32948607
250	0xbea2d223	-0.31800947
251	0x3e889d2d	0.26682416
252	0x3dd4d7fa	0.10392757
253	0x3e8d8df3	0.2764736
254	0xbe9646a5	-0.29350773
255	0xbea8db08	-0.32979608

get_operations.0.gnn_layers.1.project.0.bias f4 [128]
0	0xbe34ca59	-0.17655315
1	0xbdeffaa4	-0.11717728
2	0xbce29085	-0.027656803
3	0x3dfb7fec	0.122802585
4	0xbd655d85	-0.05599739
5	0xbdbfa088	-0.09356791
6	0x3dd96ffe	0.10617064
7	0x3dced5f1	0.100994
8	0x3e64eadd	0.22355218
9	0x3d1c448d	0.038151313
10	0xbdb84f2a	-0.08999474
11	0x3c278adf	0.010225981
12	0xbe85ae1f	-0.26109406
13	0xbc9907c6	-0.018680464
14	0x3cca377b	0.024684658
15	0x3e2b42dd	0.16724725
16	0xbe89d248	-0.26918244
17	0xbdb0e74a	-0.08637865
18	0xbddb3077	-0.10702603
19	0x3ec02f2c	0.3753599
20	0xbe7a337e	-0.24433705
21	0xbd8198d8	-0.06327981
22	0x3e00a1a9	0.12561668
23	0xbdbec258	-0.09314412
24	0xbe91a1d5	-0.2844378
25	0xbe88ff65	-0.2675735
26	0x3d9ad766	0.07560615
27	0x3e369b90	0.1783278
28	0x3d0c4e14	0.03425415
29	0x3dc442ff	0.09583091
30	0xbe988750	-0.29790735
31	0xbc9b9cf6	-0.018995743
32	0xbeb4fd72	-0.35349613
33	0x3d672ec8	0.0564411
34	0xbe45cdf3	-0.19316845
35	0x3e9abd64	0.3022262
36	0x3e2a6b91	0.16642596
37	0x3e942ef1	0.28942063
38	0xbe0ac397	-0.13551174
39	0x3d57bb24	0.052668706
40	0xbd5295f3	-0.051412534
41	0xbe985df9	-0.29759195
42	0x3e59306c	0.21209878
43	0x3e6c2942	0.23062614
44	0x3d0ad0b4	0.03389044
45	0xbeb48dbd	-0.35264388
46	0xbe377872	-0.1791704
47	0x3e7d3547	0.24727355
48	0x3eb6c7dd	0.3569936
49	0x3e7411a7	0.23834859
50	0x3de8f538	0.11374897
51	0x3de3d63f	0.111248486
52	0xbe988fb4	-0.29797137
53	0xbe89853d	-0.26859465
54	0x3e683c8e	0.2267935
55	0xbc85adea	-0.01631828
56	0x3e0699c2	0.13144591
57	0x3e245991	0.16049792
58	0x3d4ff5c9	0.05077151
59	0xbe9793dc	-0.29604995
60	0xbe70f941	-0.23532583
61	0xbcbe1f72	-0.023208354
62	0x3ec5a42f	0.38601825
63	0xbe393a63	-0.18088679
64	0xbdef6245	-0.11688665
65	0x3d61b2c8	0.05510214
66	0xbec2e973	-0.38068733
67	0xbcba4005	-0.022735605
68	0x3ebab30f	0.36464736
69	0xbec5eb29	-0.38655975
70	0x3e43b16a	0.19110647
71	0xbec728bd	-0.38898268
72	0x3ec873c1	0.39150813
73	0xbeaa9991	-0.33320287
74	0xbd297b4c	-0.04137735
75	0xbe556b53	-0.20841722
76	0xbe5cfff2	-0.2158201
77	0x3de8d626	0.113689706
78	0xbe90d332	-0.2828613
79	0x3d8c82bf	0.06860875
80	0x3d9787f3	0.07398977
81	0xbeac8570	-0.33695555
82	0x3e111a0c	0.14170092
83	0x3e8f44d9	0.27982214
84	0xbe4df151	-0.20111586
85	0xbdbe45f3	-0.092906855
86	0xbeb4794e	-0.35248798
87	0x3eaca1ed	0.3371729
88	0x3e8247b9	0.25445345
89	0x3e3532bf	0.1769514
90	0xbda0bb02	-0.07848169
91	0x3d928c40	0.07155657
92	0x3d24934b	0.040179532
93	0xbea4dc0e	-0.32199138
94	0xbe5824de	-0.21107814
95	0x3d70c1be	0.058778517
96	0xbe811211	-0.25209096
97	0xbe954ac3	-0.291586
98	0x3d600f9e	0.054702394
99	0x3e97f1e2	0.2967673
100	0x3eb3fa16	0.35151738
101	0x3e249068	0.16070712
102	0xbc92b17b	-0.017906895
103	0x3ea00c18	0.31259227
104	0x3ec018c2	0.3751889
105	0x3dfdd5d2	0.123942986
106	0xbd1b89c7	-0.03797319
107	0xbe88bc54	-0.26706183
108	0xbe456573	-0.19276981
109	0xbecd0fcf	-0.40051123
110	0x3dfdda4d	0.12395153
111	0x3e857871	0.26068452
112	0xbeabd5e4	-0.33561623
113	0xbe89a1e5	-0.26881328
114	0x3da297cc	0.07939109
115	0xbe49a6bc	-0.1969251
116	0xbcbbceb8	-0.02292572
117	0x3ec1121d	0.37709132
118	0xbec1a376	-0.37820023
119	0x3e4e9b97	0.2017654
120	0xbdd62724	-0.10456684
121	0xbea2881a	-0.31744462
122	0x3eb5973c	0.35466945
123	0xbd1ac99c	-0.037789926
124	0xbdad9b1f	-0.084768526
125	0x3d5b5f22	0.053557523
126	0x3d9f4ad3	0.077779435
127	0xbd9a6364	-0.075384885
